OK GLaDOS/OK_GLaDOS.tflite (tflite, 206976 bytes, 9 tensors)

arith.constant f4 [1, 32]
0.1487865 0.065695055 -0.31562045 -0.32218057 0.13706625 -0.30469504 0.021916142 -0.0253377
0.12193334 -0.030640718 0.1438798 -0.13776992 -0.34684262 -0.3327281 0.17649752 0.14437725
-0.31666008 -0.03336547 0.18226936 0.16136196 -0.31207517 -0.1019889 -0.32328343 -0.32469705
0.21165887 0.20604475 0.10039735 -0.3597037 -0.33333102 0.07956591 0.02513514 0.080203876
00000000: 7d5b 183e 218b 863d 0199 a1be daf4 a4be
00000010: 185b 0c3e fd00 9cbe 7b89 b33c 0291 cfbc
00000020: 30b8 f93d 3e02 fbbc 3a55 133e 8f13 0dbe
00000030: 5b95 b1be 565b aabe c4bb 343e a1d7 133e
00000040: 4521 a2be 3baa 08bd d2a4 3a3e 123c 253e
00000050: 51c8 9fbe 8edf d0bd 6885 a5be b13e a6be
00000060: 1abd 583e 65fd 523e 209d cd3d 152b b8be
00000070: 5daa aabe 74f3 a23d 36e8 cd3c ee41 a43d

arith.constant1 f4 [32, 32]
0.25204673 0.09592744 0.13879384 0.10038763 0.04746024 -0.07027738 0.024054335 0.014182072
0.19077314 0.16783546 -0.11414156 0.02932869 -0.034129944 0.021432498 -0.0029029066 -0.14605741
-0.03915052 -0.033469 0.003530463 0.04312731 -0.11024618 0.10167552 -0.028431384 0.06717456
0.04693366 -0.030616546 -0.09741912 -0.04789781 -0.021768961 0.11441948 -0.13896784 -0.13457818
-0.18943915 0.13819458 0.031659167 -0.08814476 0.13742694 0.14750029 0.05190296 0.16849995
0.13700177 0.090488605 0.10697521 0.034122188 -0.057963684 0.018013941 0.07911354 0.025790941
-0.026104862 0.17839573 -0.107821085 0.08932779 -0.0576319 0.11597325 -0.061520535 -0.10001857
-0.023665117 0.07809957 0.12707758 -0.12893474 -0.05550019 0.00032131246 -0.11908428 -0.20705393
0.019601809 0.036729064 -0.14526875 -0.052834105 -0.20108807 0.06214764 0.08819151 0.058955617
-0.049359076 0.011443061 -0.062463064 -0.02234717 0.12270776 0.14372806 0.04876617 0.13232653
-0.00493853 0.110861845 -0.017933028 0.02653939 -0.14440133 0.03715036 0.16866736 -0.06653546
-0.09462444 -0.037616763 0.08650396 0.00040734906 -0.10806327 0.005937437 0.10256817 0.0540569
0.029525608 -0.20601648 -0.16546051 -0.20829275 -0.104253486 0.022381594 -0.048234493 -0.16093436
-0.16925925 0.06002681 -0.15817209 -0.01813506 -0.1230363 0.17068657 -0.063749924 -0.17741035
-0.12603872 -0.14634892 0.056536477 0.15776956 -0.039814558 -0.018480483 0.041396815 -0.07449596
0.036817454 -0.04942321 -0.12717837 -0.1051827 -0.01587388 0.12770724 -0.003250996 0.012984604
-0.14078948 -0.009044384 -0.007804874 -0.11327412 0.2516554 0.16485833 -0.112891495 -0.037768904
0.17323269 0.03839373 0.15262957 -0.046511896 0.15615357 -0.106604114 0.15174012 0.24381712
-0.15365976 -0.04237643 0.18890078 0.0074503743 0.08686413 -0.087685175 0.11906996 -0.08919396
-0.1505678 -0.11269623 -0.0705355 0.07760335 -0.14458571 -0.06809617 -0.10327285 0.05919099
0.008609087 -0.007119703 0.042739447 -0.00997611 0.0358496 -0.017609067 -0.11665217 0.13674642
-0.09933634 -0.16456044 0.10287933 -0.1877438 -0.06947904 -0.091064304 -0.13643263 -0.033003476
0.13683677 0.055914212 -0.040061958 0.06725511 0.02268936 -0.048740998 0.046979446 0.00035887025
0.10107631 0.1461966 0.061489273 -0.101018056 -0.12755364 0.07267355 -0.13110216 0.096660934
0.05363344 -0.018414728 0.025687372 -0.09465248 -0.12635711 -0.11179382 0.08917867 0.124612525
0.0221974 -0.06401952 -0.037569266 -0.06522521 -0.026240103 0.15114161 0.081339136 0.10656225
-0.05612781 0.08710973 0.17443794 -0.08794205 0.17112887 -0.04425686 0.14770117 -0.1661266
-0.057578184 -0.020095428 0.17239049 0.12863858 0.05988866 0.075935364 -0.17400731 -0.09104508
-0.17243941 -0.010925422 0.022597086 -0.14089638 0.035789795 -0.061772075 -0.16294366 -0.022426026
-0.015308079 0.04298927 -0.11365684 -0.073450685 0.088986635 -0.0435518 0.11774705 -0.048280746
-0.051536757 -0.10123169 0.11723744 0.13807493 0.15028891 -0.07887787 -0.04962763 0.10945424
0.057435267 0.033392563 0.090464324 0.15075763 -0.05442108 -0.071336515 -0.04530204 -0.11196165
00000000: 450c 813e 9b75 c43d f91f 0e3e 0898 cd3d
00000010: ab65 423d 96ed 8fbd 990d c53c ec5b 683c
00000020: 095a 433e 0fdd 2b3e 0dc3 e9bd b942 f03c
00000030: d7cb 0bbd 3593 af3c b13e 3ebb 1390 15be
00000040: 4c5c 20bd ca16 09bd 575f 673b 43a6 303d
00000050: c0c8 e1bd 413b d03d efe8 e8bc d192 893d
00000060: 823d 403d 8dcf fabc ad83 c7bd 7e30 44bd
00000070: d254 b2bc c354 ea3d 964d 0ebe ddce 09be
00000080: 56fc 41be e182 0d3e 0bad 013d 3d85 b4bd
00000090: a6b9 0c3e 510a 173e 3398 543d 408b 2c3e
000000a0: 314a 0c3e 1752 b93d d215 db3d b5c3 0b3d
000000b0: 546b 6dbd f991 933c 4806 a23d 8647 d33c
000000c0: ddd9 d5bc 5fad 363e 4dd1 dcbd 7df1 b63d
000000d0: 6d0f 6cbd 6283 ed3d f5fc 7bbd 89d6 ccbd
000000e0: 59dd c1bc abf2 9f3d a020 023e 7807 04be
000000f0: 2b54 63bd d475 a839 76e2 f3bd f205 54be
00000100: f993 a03c 3771 163d 55c1 14be 9368 58bd
00000110: 08ea 4dbe 868e 7e3d c09d b43d 727b 713d
00000120: be2c 4abd ad7b 3b3c 45d9 7fbd 6a11 b7bc
00000130: 354e fb3d 732d 133e 09bf 473d 9b80 073e
00000140: 64d3 a1bb 890b e33d 49e8 92bc 2369 d93c
00000150: f1dd 13be fa2a 183d 23b7 2c3e be43 88bd
00000160: 75ca c1bd 0914 1abd fd28 b13d 7791 d539
00000170: 4750 ddbd d58e c23b 430f d23d c56a 5d3d
00000180: b0df f13c fcf5 52be 7b6e 29be b24a 55be
00000190: da82 d5bd 9b59 b73c 8891 45bd facb 24be
000001a0: 4c52 2dbe acde 753d ddf7 21be fa8f 94bc
000001b0: 75fa fbbd 76c8 2e3e 528f 82bd 0fab 35be
000001c0: 4b10 01be 7edc 15be cb92 673d 588e 213e
000001d0: 9714 23bd 6264 97bc b58f 293d 5691 98bd
000001e0: e6cd 163d fe6f 4abd 0c3b 02be 076a d7bd
000001f0: f009 82bc b0c5 023e a90e 55bb 60bd 543c
00000200: 1e2b 10be e52e 14bc 07c0 ffbb 43fc e7bd
00000210: fad8 803e 9fd0 283e a833 e7bd 91b3 1abd
00000220: e963 313e be42 1d3d ed4a 1c3e 4283 3ebd
00000230: b9e6 1f3e 4253 dabd c361 1b3e 32ab 793e
00000240: fc58 1dbe e892 2dbd 356f 413e 4522 f43b
00000250: d2e5 b13d 4994 b3bd f4da f33d 53ab b6bd
00000260: 722e 1abe 48cd e6bd eb74 90bd 81ee 9e3d
00000270: 470e 14be 0176 8bbd b780 d3bd 4072 723d
00000280: 210d 0d3c 664c e9bb 8f0f 2f3d d772 23bc
00000290: 08d7 123d e440 90bc 55e7 eebd 4107 0c3e
000002a0: da70 cbbd 8882 28be 66b2 d23d e93f 40be
000002b0: 074b 8ebd ec7f babd ffb4 0bbe a72e 07bd
000002c0: f01e 0c3e 4d06 653d 0218 24bd 0cbd 893d
000002d0: 09df b93c a4a4 47bd 856d 403d c026 bc39
000002e0: 1901 cf3d 90b4 153e 2ddc 7b3d 8ee2 cebd
000002f0: 6c9d 02be dfd5 943d a53f 06be 2bf6 c53d
00000300: bdae 5b3d 7cda 96bc 536e d23c 29d9 c1bd
00000310: c263 01be 29f4 e4bd 4ea3 b63d da34 ff3d
00000320: 52d7 b53c ab1c 83bd 3be2 19bd cb94 85bd
00000330: 7cf5 d6bc dec4 1a3e 2295 a63d 4f3d da3d
00000340: 46e6 65bd 9666 b23d dc9f 323e f61a b4bd
00000350: 683c 2f3e ae46 35bd fa3e 173e 171d 2abe
00000360: 1ad7 6bbd 2b9f a4bc 2287 303e d5b9 033e
00000370: d04d 753d 0084 9b3d f92e 32be d875 babd
00000380: f593 30be 8b00 33bc 861d b93c 2447 10be
00000390: 5298 123d b704 7dbd b4da 26be c9b6 b7bc
000003a0: bdce 7abc 8415 303d ebc4 e8bd 506d 96bd
000003b0: a03e b63d 5f63 32bd 5e25 f13d 08c2 45bd
000003c0: 3518 53bd 8f52 cfbd 2f1a f03d 8463 0d3e
000003d0: 56e5 193e b98a a1bd 5746 4bbd 8b29 e03d
000003e0: 3e41 6b3d a4c6 083d 5c45 b93d 3560 1a3e
000003f0: a3e8 5ebd e118 92bd a28e 39bd 264c e5bd

arith.constant2 f4 [32, 1536]
-0.014614931 0.051615976 -0.016726315 -0.014582721 0.034376033 0.018326614 -0.006935495 0.0025054826
-0.023483872 -0.046384584 -0.010012574 0.05290793 -0.034321252 0.053698383 0.020181814 -0.020213021
-0.060131017 0.028876701 0.04228922 -0.025270613 -0.033675574 0.017438607 -0.0040401327 -0.0020032332
0.03294061 0.024431214 -0.016123056 0.0014473087 -0.021072818 -0.054947283 0.052161116 -0.010981372
0.020329472 0.036580786 0.0072391666 0.03143516 0.022689532 -0.0053490414 -0.0015204046 -0.012115238
-0.015147347 0.022596676 -9.759888e-05 -0.019306941 -0.045095574 -0.012536855 -0.0048701186 -0.03899002
-0.015937662 0.08399955 0.036440376 -0.008112139 -0.0378652 0.09039778 -0.00039367177 0.007766225
-0.02234214 -0.01630582 -0.001858057 -0.007897091 0.01834282 -0.01079246 0.00069938536 -0.04791326
-0.007110269 0.028742261 0.042276636 -0.00070649455 0.0004618211 0.012993474 -0.02535338 0.008303313
0.02912952 -0.025230879 0.01575229 0.0044074133 -0.03772177 -0.017709905 -0.0026262184 -0.0033216071
-0.015276861 0.003979041 -0.008958121 0.017453203 -0.018813984 -0.03867677 -0.015117187 -0.0010671837
-0.010303944 -0.005535733 0.022045333 -0.0063907835 -0.007908729 0.009715002 0.0042376025 0.02160167
0.021154327 0.038487114 -0.02202944 -0.031406518 0.019104498 0.0028932323 0.028109265 0.0010061183
-0.022454426 -0.054191634 0.020458527 0.061221413 -0.0016815232 0.034122158 0.022451473 -0.02759289
-0.017990042 0.04465045 0.048123565 -0.03732183 -0.015555548 -0.0017135442 0.00087181694 -0.0031635049
0.044755097 0.010756554 -0.022262163 0.011381197 -0.010121952 -0.05843069 0.03475972 -0.022447618
0.013317263 -8.3922365e-05 0.032127865 0.0064376635 0.0029066263 0.018469198 -0.026664393 -0.018600833
-0.020181894 0.0008885423 0.009304926 0.00063461135 -0.022723135 -0.0030694401 -0.019737966 -0.020277217
-0.061820913 0.0371523 0.030652193 0.01522731 -0.05232573 0.05420193 0.004251915 -0.013427842
0.0018382989 -0.0010743818 0.023720581 -0.014576463 0.011984547 -0.0015775993 0.01302336 -0.016491024
0.008525446 0.01110244 0.01697907 -0.004090471 0.009096039 -0.0036366659 -0.07644639 -0.017864209
0.035467964 -0.0007219742 0.009713658 0.039389312 -0.034432773 0.006026509 0.016566472 -0.01963078
-0.015542781 -0.010960724 0.026720727 0.06116703 0.01775638 -0.03279018 -0.02745374 0.031906437
0.02869275 -0.02498863 0.04665472 -0.030355787 0.029778246 0.024452198 0.0064330567 0.034880735
0.042319413 0.071472816 0.00090578827 -0.05558146 0.03016403 0.010677341 -0.008663238 -0.022738574
-0.033779703 -0.03224373 0.009299391 0.08196252 0.01723769 0.047141574 0.02831575 -0.015318326
-0.011212728 0.05096563 0.04920337 -0.023303539 -0.04286935 0.01296981 -0.024172463 0.01712104
0.05030437 0.044214558 -0.01311852 -0.020144446 0.044301014 -0.07036564 0.025027087 -0.011944907
0.00083786866 0.02953764 -0.0046594962 -0.008401135 0.004525367 -0.018344393 -0.02205357 -0.033365965
-0.02145739 0.019950872 -0.011211767 -0.008916592 -0.029637406 -0.014279319 -0.023311973 -0.043516874
-0.034480326 0.07950355 0.038989514 -0.019292917 -0.027010947 0.06489372 -0.0121546555 0.020927493
0.0128151085 0.012748044 -0.012432797 -0.020279283 -0.020371221 -0.013405381 0.028194765 -0.02467028
00000000: 7773 6fbc 466b 533d a005 89bc 5dec 6ebc
00000010: e2cd 0c3d b221 963c 2643 e3bb 0633 243b
00000020: 4061 c0bc c3fd 3dbd c70b 24bc fcb5 583d
00000030: 7194 0cbd d6f2 5b3d 5554 a53c c795 a5bc
00000040: f14b 76bd d58e ec3c 7637 2d3d 5104 cfbc
00000050: 66ef 09bd 69db 8e3c 1763 84bb ad48 03bb
00000060: bcec 063d f823 c83c 8014 84bc 9fb3 bd3a
00000070: e7a0 acbc 6710 61bd e5a6 553d 36eb 33bc
00000080: fe89 a63c bcd5 153d 8836 ed3b 28c2 003d
00000090: 66df b93c 0347 afbb 5048 c7ba fe7e 46bc
000000a0: 942c 78bc aa1c b93c 00ae ccb8 9729 9ebc
000000b0: 23b6 38bd 6267 4dbc 8495 9fbb 00b4 1fbd
000000c0: b38f 82bc f507 ac3d 8142 153d c7e8 04bc
000000d0: 8a18 1bbd 7922 b93d bb65 ceb9 d17b fe3b
000000e0: dd06 b7bc c893 85bc 0c8a f3ba cd62 01bc
000000f0: af43 963c dcd2 30bc f556 373a b240 44bd
00000100: 42fd e8bb e474 eb3c 442a 2d3d 0c34 39ba
00000110: 9420 f239 94e2 543c e4b1 cfbc 9e0a 083c
00000120: 08a1 ee3c fdb0 cebc f20a 813c 106c 903b
00000130: 2582 1abd 5d14 91bc a21c 2cbb 52af 59bb
00000140: cd4b 7abc 9d62 823b 15c5 12bc 05fa 8e3c
00000150: c91f 9abc 886b 1ebd 14ae 77bc bee0 8bba
00000160: e0d1 28bc 1865 b5bb 6a98 b43c c769 d1bb
00000170: 9d93 01bc ac2b 1f3c 96db 8a3b fcf5 b03c
00000180: d74b ad3c aaa4 1d3d 1677 b4bc 1fa4 00bd
00000190: 0981 9c3c 629c 3d3b 6745 e63c badf 833a
000001a0: 58f2 b7bc 0cf8 5dbd a498 a73c 4ec3 7a3d
000001b0: 8e66 dcba adc3 0b3d 27ec b73c 7c0a e2bc
000001c0: da5f 93bc 64e3 363d 371d 453d c6de 18bd
000001d0: b2dc 7ebc 0199 e0ba a58a 643a ce52 4fbb
000001e0: 1f51 373d 423c 303c 245f b6bc 3378 3a3c
000001f0: 8bd6 25bc 0555 6fbd 3560 0e3d 11e4 b7bc
00000200: a630 5a3c 7aff afb8 8298 033d 09f3 d23b
00000210: 197d 3e3b b74c 973c 496f dabc c660 98bc
00000220: 8054 a5bc 10ed 683a b073 183c 0c5c 263a
00000230: de25 babc a928 49bb 84b1 a1bc 681c a6bc
00000240: ed37 7dbd 032d 183d 4f1a fb3c f87b 793c
00000250: 8153 56bd d802 5e3d a653 8b3b 7400 5cbc
00000260: 13f3 f03a 45d2 8cba aa51 c23c 1ed2 6ebc
00000270: d55a 443c 73c7 ceba ee5f 553c 2f18 87bc
00000280: 50ae 0b3c 02e7 353c b117 8b3c 5c09 86bb
00000290: 8e07 153c 2155 6ebb ed8f 9cbd f657 92bc
000002a0: db46 113d de42 3dba 0926 1f3c b056 213d
000002b0: 6109 0dbd 067a c53b 69b6 873c bbd0 a0bc
000002c0: 26a7 7ebc 9c94 33bc 6de5 da3c 488a 7a3d
000002d0: d475 913c ff4e 06bd aae6 e0bc 53b0 023d
000002e0: 0f0d eb3c f5b4 ccbc 0519 3f3d b3ac f8bc
000002f0: 82f1 f33c fa4f c83c 64cc d23b 1adf 0e3d
00000300: 1f57 2d3d 5760 923d 6c72 6d3a 63a9 63bd
00000310: 8e1a f73c 04f0 2e3c 41f0 0dbc 3f46 babc
00000320: 965c 0abd 0012 04bd 795c 183c f7db a73d
00000330: 0e36 8d3c 8617 413d 6ff6 e73c b7f9 7abc
00000340: 97b5 37bc 56c1 503d 7989 493d 10e7 bebc
00000350: c697 2fbd 537f 543c 5405 c6bc 6c41 8c3c
00000360: f40b 4e3d 531a 353d 10ef 56bc f705 a5bc
00000370: fb74 353d dc1b 90bd 9b05 cd3c 92b4 43bc
00000380: 6aa4 5b3a ecf8 f13c b0ae 98bb eaa4 09bc
00000390: 8849 943b fb46 96bc b0a9 b4bc c0aa 08bd
000003a0: 69c7 afbc 0370 a33c 8fb1 37bc e616 12bc
000003b0: 25ca f2bc cef3 69bc c0f8 bebc c03e 32bd
000003c0: 3e3b 0dbd c2d2 a23d 78b3 1f3d 2e0c 9ebc
000003d0: 1046 ddbc 00e7 843d 5224 47bc 2270 ab3c
000003e0: 76f6 513c 2cdd 503c eeb2 4bbc bd20 a6bc
000003f0: 8ce1 a6bc 3ea2 5bbc b5f8 e63c 5419 cabc

model_8/tf.__operators__.add/AddV2/y f4 [32]
-0.015832508 0.003547436 -0.027361793 0.0204049 0.0047277743 -0.017898288 0.0003845331 -0.021090604
-0.01586377 -0.0034355903 0.018082498 0.010859939 0.023709698 -0.0055679935 0.02583754 -0.02335742
-0.0114024095 0.008350071 -0.017362319 0.020628866 0.01097458 -0.0076400745 0.018522523 -0.0038169976
-0.01972899 0.026915692 -0.021520255 -0.026210845 -0.018151244 0.0007794945 0.030836012 0.008611366
00000000: 2db3 81bc 1a7c 683b d725 e0bc 2d28 a73c
00000010: 72eb 9a3b 6e9f 92bc 299b c939 34c6 acbc
00000020: bdf4 81bc a427 61bb bf21 943c e3ed 313c
00000030: d73a c23c b773 b6bb 40a9 d33c 0f58 bfbc
00000040: 2cd1 3abc bcce 083c 6c3b 8ebc defd a83c
00000050: bace 333c 9759 fabb 8cbc 973c 9826 7abb
00000060: b19e a1bc 4c7e dc3c 3f4b b0bc 20b8 d6bc
00000070: ebb1 94bc fe56 4c3a ce9b fc3c b016 0d3c

model_8/tf.__operators__.add_1/AddV2/y f4 [32]
-0.05949744 0.14623544 -0.104665175 0.086092345 -0.0440087 0.11195288 0.078597195 -0.11400509
0.09885564 -0.14205791 -0.024884675 -0.14214914 -0.08639366 0.10928974 0.06531907 -0.048665952
-0.021825053 0.037583232 -0.06791615 0.17709488 0.14678422 -0.03140318 0.08266174 0.1494331
0.0070835133 -0.013322607 0.031021142 0.15062211 -0.088151924 -0.1091994 -0.16118951 0.075441174
00000000: 96b3 73bd bebe 153e b25a d6bd 2f51 b03d
00000010: 7742 34bd 8d47 e53d 91f7 a03d 807b e9bd
00000020: d374 ca3d a177 11be f2da cbbc 8b8f 11be
00000030: 29ef b0bd 4dd3 df3d 01c6 853d f355 47bd
00000040: 74ca b2bc e0f0 193d 9f17 8bbd 5c58 353e
00000050: 9a4e 163e 9fa0 00bd 8f4a a93d fe04 193e
00000060: d11c e83b 1047 5abc 0d20 fe3c af3c 1a3e
00000070: ff88 b4bd efa3 dfbd dd0e 25be e780 9a3d

model_8/tf.math.add_2/Add/y f4 [1, 32]
0.039694194 0.0014999995 0.022044796 0.043674275 -0.009679391 -0.019204699 -0.028304167 -0.039584294
-0.016608806 -0.028421981 -0.026395518 0.0034892068 -0.009441974 -0.007829146 -0.011869047 -0.015249221
-0.01000098 -0.013246019 0.015440474 -0.0074842516 -0.016715333 -0.001232075 -0.011179005 0.012320271
-0.014816007 -0.036464386 -0.024730504 0.0026732604 -0.012911075 -0.0047078356 0.0016201751 0.029885404
00000000: 6196 223d a29b c43a 4a97 b43c cce3 323d
00000010: 4f96 1ebc 2c53 9dbc 24de e7bc 2423 22bd
00000020: 310f 88bc 37d5 e8bc 6a3b d8bc 2dab 643b
00000030: 82b2 1abc d245 00bc 6476 42bc ded7 79bc
00000040: 27db 23bc d505 59bc 0bfa 7c3c 743e f5bb
00000050: 98ee 88bc 947d a1ba 2528 37bc f6da 493c
00000060: d6be 72bc ae5b 15bd a097 cabc de31 2f3b
00000070: f988 53bc 3044 9abb 0e5c d43a 3cd2 f43c

model_8/tf.math.add_5/Add/y f4 [1, 32]
0.10688612 -0.008099392 0.25678307 0.27139196 0.1005476 0.23641682 0.009665548 0.020539947
0.117351376 -0.054305494 0.048403826 -0.028931925 0.22011971 0.22397223 0.02774546 0.031201977
0.24877213 -0.008629808 0.07493019 0.1176415 0.24584612 -0.07120194 0.2610784 0.23310915
0.14624773 0.040312465 0.055978257 0.21743116 0.23820555 0.026317982 0.0066611515 0.011790445
00000000: 1ce7 da3d 50b3 04bc 1279 833e e3f3 8a3e
00000010: e6eb cd3d 4017 723e 3f5c 1e3c 6443 a83c
00000020: eb55 f03d 706f 5ebd 1743 463d a502 edbc
00000030: 1067 613e fa58 653e 724a e33c 4a9b ff3c
00000040: 1fbe 7e3e 0a64 0dbc 0075 993d 07ee f03d
00000050: 16bf 7b3e 53d2 91bd 11ac 853e 2ab4 6e3e
00000060: f7c1 153e af1e 253d 7549 653d 46a6 5e3e
00000070: 28ec 733e cf98 d73c ca45 da3b b62c 413c

model_8/tf.math.multiply_10/Mul/y f4 [1, 32]
1.1126212 1.0003766 1.0506685 0.9905674 1.0397449 0.9605174 0.98029065 0.9561724
0.9772768 0.97412205 0.976451 1.0102036 0.9423679 0.95011663 0.9814801 1.0033315
0.97073126 1.0119194 1.0269108 0.99760807 0.9614058 0.9980696 0.94744116 0.96214736
0.98824525 0.98042417 0.9759688 0.9229927 0.9752055 0.9955671 0.98307246 1.0167218
00000000: 5f6a 8e3f 570c 803f 4e7c 863f d395 7d3f
00000010: 5c16 853f 78e4 753f 54f4 7a3f b7c7 743f
00000020: d02e 7a3f 1060 793f b1f8 793f 5a4e 813f
00000030: 063f 713f d83a 733f 4842 7b3f 2b6d 803f
00000040: d881 783f 9386 813f d071 833f 3e63 7f3f
00000050: b11e 763f 7d81 7f3f 818b 723f 4a4f 763f
00000060: a4fd 7c3f 14fd 7a3f 17d9 793f 4049 6c3f
00000070: 11a7 793f 7cdd 7e3f a3aa 7b3f f123 823f

model_8/tf.math.multiply_22/Mul/y f4 [1, 32]
1.1119493 0.99558955 1.2938199 1.3355227 1.134013 1.2405065 1.0130415 1.0142142
1.1316346 0.9315943 1.0502628 0.9779108 1.2245319 1.2222483 1.0309175 1.0681926
1.2716385 1.0038377 1.0969354 1.1317614 1.2668211 0.94611007 1.304406 1.229967
1.1461669 1.0454189 1.0736073 1.2018806 1.2445552 1.0001543 1.0004178 1.0249623
00000000: 5b54 8e3f f5de 7e3f e49b a53f 68f2 aa3f
00000010: 5727 913f ebc8 9e3f 58ab 813f c5d1 813f
00000020: 67d9 903f f77c 6e3f 036f 863f 5d58 7a3f
00000030: 76bd 9c3f a272 9c3f 1bf5 833f 89ba 883f
00000040: 0dc5 a23f c17d 803f 6168 8c3f 8fdd 903f
00000050: 3227 a23f 4534 723f c7f6 a63f 8f6f 9d3f
00000060: 99b5 923f 49d0 853f f76b 893f 39d7 993f
00000070: 964d 9f3f 0e05 803f b10d 803f f731 833f
